…
 num_neg         | 1           
 num_workers     | 5           
 optimizer       | Adam        
 random_seed     | 0           
 test_all        | 0           
 time_diffs      | 0           
 time_features   |             
 topk            | 1,5,10,15,20
================================
INFO:root:GPU available: False
INFO:root:Reading data from "../data/", dataset = "tinkoff" 
INFO:root:Counting dataset statistics...
INFO:root:"# user": 94587, "# item": 2957, "# entry": 537677
INFO:root:Appending history info...
INFO:root:Save corpus to ../BaseReader.pkl
INFO:root:#params: 215872
INFO:root:SASRec(
  (i_embeddings): Embedding(2958, 64)
  (p_embeddings): Embedding(21, 64)
  (transformer_block): ModuleList(
    (0): TransformerLayer(
      (masked_attn_head): MultiHeadAttention(
        (q_linear): Linear(in_features=64, out_features=64, bias=True)
        (k_linear): Linear(in_features=64, out_features=64, bias=True)
        (v_linear): Linear(in_features=64, out_features=64, bias=True)
      )
      (layer_norm1): LayerNorm((64,), eps=1e-05, elementwise_affine=True)
      (dropout1): Dropout(p=0, inplace=False)
      (linear1): Linear(in_features=64, out_features=64, bias=True)
      (linear2): Linear(in_features=64, out_features=64, bias=True)
      (layer_norm2): LayerNorm((64,), eps=1e-05, elementwise_affine=True)
      (dropout2): Dropout(p=0, inplace=False)
    )
  )
  (lin): Linear(in_features=64, out_features=64, bias=True)
)
INFO:root:Optimizer: Adam
INFO:root:Epoch 1     loss=0.2155 [181.4 s]    dev=(HR@1:0.1624,MNAP@1:0.1624,NDCG@1:0.1624) [4.5 s] *
INFO:root:Epoch 2     loss=0.1207 [183.0 s]    dev=(HR@1:0.1643,MNAP@1:0.1643,NDCG@1:0.1643) [4.5 s] *
INFO:root:Epoch 3     loss=0.1151 [183.4 s]    dev=(HR@1:0.1595,MNAP@1:0.1595,NDCG@1:0.1595) [4.5 s]
INFO:root:Epoch 4     loss=0.1137 [183.7 s]    dev=(HR@1:0.1599,MNAP@1:0.1599,NDCG@1:0.1599) [4.6 s]
…
