…
 num_neg         | 1           
 num_workers     | 5           
 optimizer       | Adam        
 random_seed     | 0           
 test_all        | 0           
 time_diffs      | 0           
 time_features   | month       
 topk            | 1,5,10,15,20
================================
INFO:root:GPU available: False
INFO:root:Reading data from "../data/", dataset = "tinkoff" 
INFO:root:Counting dataset statistics...
INFO:root:"# user": 94587, "# item": 2957, "# entry": 537677
INFO:root:Appending history info...
INFO:root:Save corpus to ../BaseReader.pkl
INFO:root:#params: 220736
INFO:root:SASRec(
  (i_embeddings): Embedding(2958, 64)
  (p_embeddings): Embedding(21, 64)
  (months_embeddings): Embedding(12, 64)
  (transformer_block): ModuleList(
    (0): TransformerLayer(
      (masked_attn_head): MultiHeadAttention(
        (q_linear): Linear(in_features=64, out_features=64, bias=True)
        (k_linear): Linear(in_features=64, out_features=64, bias=True)
        (v_linear): Linear(in_features=64, out_features=64, bias=True)
      )
      (layer_norm1): LayerNorm((64,), eps=1e-05, elementwise_affine=True)
      (dropout1): Dropout(p=0, inplace=False)
      (linear1): Linear(in_features=64, out_features=64, bias=True)
      (linear2): Linear(in_features=64, out_features=64, bias=True)
      (layer_norm2): LayerNorm((64,), eps=1e-05, elementwise_affine=True)
      (dropout2): Dropout(p=0, inplace=False)
    )
  )
  (lin): Linear(in_features=128, out_features=64, bias=True)
)
INFO:root:Optimizer: Adam
INFO:root:Epoch 1     loss=0.2148 [938.2 s]    dev=(HR@1:0.1495,MNAP@1:0.1495,NDCG@1:0.1495) [6.2 s] *
INFO:root:Epoch 2     loss=0.1207 [256.8 s]    dev=(HR@1:0.1629,MNAP@1:0.1629,NDCG@1:0.1629) [6.1 s] *
INFO:root:Epoch 3     loss=0.1149 [257.3 s]    dev=(HR@1:0.1590,MNAP@1:0.1590,NDCG@1:0.1590) [6.9 s]
INFO:root:Epoch 4     loss=0.1132 [266.5 s]    dev=(HR@1:0.1664,MNAP@1:0.1664,NDCG@1:0.1664) [6.0 s] *
…
