…
 num_neg         | 1                   
 num_workers     | 5                   
 optimizer       | Adam                
 random_seed     | 0                   
 test_all        | 0                   
 time            | 1                   
 time_diffs      | 0                   
 time_features   |                     
 time_max        | 512                 
 topk            | 1,5,10,15,20        
========================================
INFO:root:GPU available: False
INFO:root:Load corpus from ../data/Grocery_and_Gourmet_Food1/BaseReader.pkl
INFO:root:#params: 651328
INFO:root:TiSASRec(
  (i_embeddings): Embedding(8714, 64)
  (p_k_embeddings): Embedding(21, 64)
  (p_v_embeddings): Embedding(21, 64)
  (t_k_embeddings): Embedding(513, 64)
  (t_v_embeddings): Embedding(513, 64)
  (transformer_block): ModuleList(
    (0): TimeIntervalTransformerLayer(
      (masked_attn_head): TimeIntervalMultiHeadAttention(
        (v_linear): Linear(in_features=64, out_features=64, bias=True)
        (k_linear): Linear(in_features=64, out_features=64, bias=True)
        (q_linear): Linear(in_features=64, out_features=64, bias=True)
      )
      (layer_norm1): LayerNorm((64,), eps=1e-05, elementwise_affine=True)
      (dropout1): Dropout(p=0, inplace=False)
      (linear1): Linear(in_features=64, out_features=64, bias=True)
      (linear2): Linear(in_features=64, out_features=64, bias=True)
      (layer_norm2): LayerNorm((64,), eps=1e-05, elementwise_affine=True)
      (dropout2): Dropout(p=0, inplace=False)
    )
  )
  (lin): Linear(in_features=65, out_features=64, bias=True)
)
INFO:root:Optimizer: Adam
INFO:root:Epoch 1     loss=0.5903 [51.4 s]    dev=(HR@1:0.0740,MNAP@1:0.0740,NDCG@1:0.0740) [3.3 s] *
INFO:root:Epoch 2     loss=0.4846 [51.0 s]    dev=(HR@1:0.0742,MNAP@1:0.0742,NDCG@1:0.0742) [3.1 s] *
INFO:root:Epoch 3     loss=0.4525 [50.2 s]    dev=(HR@1:0.0747,MNAP@1:0.0747,NDCG@1:0.0747) [3.0 s] *
INFO:root:Epoch 4     loss=0.4416 [50.0 s]    dev=(HR@1:0.0735,MNAP@1:0.0735,NDCG@1:0.0735) [3.1 s]
…
