…
 lr              | 0.0001             
 num_heads       | 1                  
 num_layers      | 1                  
 num_neg         | 1                  
 num_workers     | 5                  
 optimizer       | Adam               
 random_seed     | 0                  
 test_all        | 0                  
 time_diffs      | 0                  
 time_features   | day,month          
 topk            | 1,5,10,15,20       
=======================================
INFO:root:GPU available: False
INFO:root:Load corpus from ../data/amazon_electronics1/BaseReader.pkl
INFO:root:#params: 4069504
INFO:root:SASRec(
  (i_embeddings): Embedding(63000, 64)
  (p_embeddings): Embedding(21, 64)
  (days_embeddings): Embedding(31, 64)
  (months_embeddings): Embedding(12, 64)
  (transformer_block): ModuleList(
    (0): TransformerLayer(
      (masked_attn_head): MultiHeadAttention(
        (q_linear): Linear(in_features=64, out_features=64, bias=True)
        (k_linear): Linear(in_features=64, out_features=64, bias=True)
        (v_linear): Linear(in_features=64, out_features=64, bias=True)
      )
      (layer_norm1): LayerNorm((64,), eps=1e-05, elementwise_affine=True)
      (dropout1): Dropout(p=0, inplace=False)
      (linear1): Linear(in_features=64, out_features=64, bias=True)
      (linear2): Linear(in_features=64, out_features=64, bias=True)
      (layer_norm2): LayerNorm((64,), eps=1e-05, elementwise_affine=True)
      (dropout2): Dropout(p=0, inplace=False)
    )
  )
  (lin): Linear(in_features=192, out_features=64, bias=True)
)
INFO:root:Optimizer: Adam
INFO:root:Epoch 1     loss=0.6381 [41.5 s]    dev=(HR@1:0.1789,MNAP@1:0.1789,NDCG@1:0.1789) [3.5 s] *
INFO:root:Epoch 2     loss=0.5282 [42.2 s]    dev=(HR@1:0.1835,MNAP@1:0.1835,NDCG@1:0.1835) [3.5 s] *
INFO:root:Epoch 3     loss=0.4554 [41.7 s]    dev=(HR@1:0.1839,MNAP@1:0.1839,NDCG@1:0.1839) [3.6 s] *
INFO:root:Epoch 4     loss=0.4068 [41.0 s]    dev=(HR@1:0.1837,MNAP@1:0.1837,NDCG@1:0.1837) [3.7 s]
…
