…
 num_heads       | 1                  
 num_layers      | 1                  
 num_neg         | 1                  
 num_workers     | 5                  
 optimizer       | Adam               
 random_seed     | 0                  
 test_all        | 0                  
 time_diffs      | 0                  
 time_features   |                    
 time_max        | 512                
 topk            | 1,5,10,15,20       
=======================================
INFO:root:GPU available: False
INFO:root:Load corpus from ../data/amazon_electronics1/BaseReader.pkl
INFO:root:#params: 4125632
INFO:root:TiSASRec(
  (i_embeddings): Embedding(63000, 64)
  (p_k_embeddings): Embedding(21, 64)
  (p_v_embeddings): Embedding(21, 64)
  (t_k_embeddings): Embedding(513, 64)
  (t_v_embeddings): Embedding(513, 64)
  (transformer_block): ModuleList(
    (0): TimeIntervalTransformerLayer(
      (masked_attn_head): TimeIntervalMultiHeadAttention(
        (v_linear): Linear(in_features=64, out_features=64, bias=True)
        (k_linear): Linear(in_features=64, out_features=64, bias=True)
        (q_linear): Linear(in_features=64, out_features=64, bias=True)
      )
      (layer_norm1): LayerNorm((64,), eps=1e-05, elementwise_affine=True)
      (dropout1): Dropout(p=0, inplace=False)
      (linear1): Linear(in_features=64, out_features=64, bias=True)
      (linear2): Linear(in_features=64, out_features=64, bias=True)
      (layer_norm2): LayerNorm((64,), eps=1e-05, elementwise_affine=True)
      (dropout2): Dropout(p=0, inplace=False)
    )
  )
  (lin): Linear(in_features=65, out_features=64, bias=True)
)
INFO:root:Optimizer: Adam
INFO:root:Epoch 1     loss=0.6449 [48.1 s]    dev=(HR@1:0.1782,MNAP@1:0.1782,NDCG@1:0.1782) [3.9 s] *
INFO:root:Epoch 2     loss=0.5330 [53.8 s]    dev=(HR@1:0.1850,MNAP@1:0.1850,NDCG@1:0.1850) [4.8 s] *
INFO:root:Epoch 3     loss=0.4563 [72.8 s]    dev=(HR@1:0.1857,MNAP@1:0.1857,NDCG@1:0.1857) [5.4 s] *
INFO:root:Epoch 4     loss=0.4070 [72.6 s]    dev=(HR@1:0.1859,MNAP@1:0.1859,NDCG@1:0.1859) [5.7 s] *
…
