…
 num_heads       | 1                   
 num_layers      | 1                   
 num_neg         | 1                   
 num_workers     | 5                   
 optimizer       | Adam                
 random_seed     | 0                   
 test_all        | 0                   
 time_diffs      | 0                   
 time_features   | weekday             
 topk            | 1,5,10,15,20        
========================================
INFO:root:GPU available: False
INFO:root:Load corpus from ../data/Grocery_and_Gourmet_Food1/BaseReader.pkl
INFO:root:#params: 588800
INFO:root:SASRec(
  (i_embeddings): Embedding(8714, 64)
  (p_embeddings): Embedding(21, 64)
  (weekdays_embeddings): Embedding(7, 64)
  (transformer_block): ModuleList(
    (0): TransformerLayer(
      (masked_attn_head): MultiHeadAttention(
        (q_linear): Linear(in_features=64, out_features=64, bias=True)
        (k_linear): Linear(in_features=64, out_features=64, bias=True)
        (v_linear): Linear(in_features=64, out_features=64, bias=True)
      )
      (layer_norm1): LayerNorm((64,), eps=1e-05, elementwise_affine=True)
      (dropout1): Dropout(p=0, inplace=False)
      (linear1): Linear(in_features=64, out_features=64, bias=True)
      (linear2): Linear(in_features=64, out_features=64, bias=True)
      (layer_norm2): LayerNorm((64,), eps=1e-05, elementwise_affine=True)
      (dropout2): Dropout(p=0, inplace=False)
    )
  )
  (lin): Linear(in_features=128, out_features=64, bias=True)
)
INFO:root:Optimizer: Adam
INFO:root:Epoch 1     loss=0.5936 [38.4 s]    dev=(HR@1:0.0742,MNAP@1:0.0742,NDCG@1:0.0742) [2.9 s] *
INFO:root:Epoch 2     loss=0.4867 [38.9 s]    dev=(HR@1:0.0746,MNAP@1:0.0746,NDCG@1:0.0746) [2.9 s] *
INFO:root:Epoch 3     loss=0.4527 [38.9 s]    dev=(HR@1:0.0755,MNAP@1:0.0755,NDCG@1:0.0755) [3.0 s] *
INFO:root:Epoch 4     loss=0.4377 [39.2 s]    dev=(HR@1:0.0796,MNAP@1:0.0796,NDCG@1:0.0796) [2.8 s] *
…
