…
 num_heads       | 1                   
 num_layers      | 1                   
 num_neg         | 1                   
 num_workers     | 5                   
 optimizer       | Adam                
 random_seed     | 0                   
 test_all        | 0                   
 time_diffs      | 0                   
 time_features   | day,month           
 topk            | 1,5,10,15,20        
========================================
INFO:root:GPU available: False
INFO:root:Load corpus from ../data/Grocery_and_Gourmet_Food1/BaseReader.pkl
INFO:root:#params: 595200
INFO:root:SASRec(
  (i_embeddings): Embedding(8714, 64)
  (p_embeddings): Embedding(21, 64)
  (days_embeddings): Embedding(31, 64)
  (months_embeddings): Embedding(12, 64)
  (transformer_block): ModuleList(
    (0): TransformerLayer(
      (masked_attn_head): MultiHeadAttention(
        (q_linear): Linear(in_features=64, out_features=64, bias=True)
        (k_linear): Linear(in_features=64, out_features=64, bias=True)
        (v_linear): Linear(in_features=64, out_features=64, bias=True)
      )
      (layer_norm1): LayerNorm((64,), eps=1e-05, elementwise_affine=True)
      (dropout1): Dropout(p=0, inplace=False)
      (linear1): Linear(in_features=64, out_features=64, bias=True)
      (linear2): Linear(in_features=64, out_features=64, bias=True)
      (layer_norm2): LayerNorm((64,), eps=1e-05, elementwise_affine=True)
      (dropout2): Dropout(p=0, inplace=False)
    )
  )
  (lin): Linear(in_features=192, out_features=64, bias=True)
)
INFO:root:Optimizer: Adam
INFO:root:Epoch 1     loss=0.5916 [38.6 s]    dev=(HR@1:0.0752,MNAP@1:0.0752,NDCG@1:0.0752) [2.8 s] *
INFO:root:Epoch 2     loss=0.4858 [38.9 s]    dev=(HR@1:0.0762,MNAP@1:0.0762,NDCG@1:0.0762) [2.9 s] *
INFO:root:Epoch 3     loss=0.4524 [39.0 s]    dev=(HR@1:0.0759,MNAP@1:0.0759,NDCG@1:0.0759) [2.8 s]
INFO:root:Epoch 4     loss=0.4376 [38.9 s]    dev=(HR@1:0.0794,MNAP@1:0.0794,NDCG@1:0.0794) [2.8 s] *
…
