…
 optimizer       | Adam        
 random_seed     | 0           
 test_all        | 0           
 time            | 1           
 time_diffs      | 0           
 time_features   |             
 time_max        | 512         
 topk            | 1,5,10,15,20
================================
INFO:root:GPU available: False
INFO:root:Reading data from "../data/", dataset = "tinkoff" 
INFO:root:Counting dataset statistics...
INFO:root:"# user": 94587, "# item": 2957, "# entry": 537677
INFO:root:Appending history info...
INFO:root:Save corpus to ../BaseReader.pkl
INFO:root:#params: 282944
INFO:root:TiSASRec(
  (i_embeddings): Embedding(2958, 64)
  (p_k_embeddings): Embedding(21, 64)
  (p_v_embeddings): Embedding(21, 64)
  (t_k_embeddings): Embedding(513, 64)
  (t_v_embeddings): Embedding(513, 64)
  (transformer_block): ModuleList(
    (0): TimeIntervalTransformerLayer(
      (masked_attn_head): TimeIntervalMultiHeadAttention(
        (v_linear): Linear(in_features=64, out_features=64, bias=True)
        (k_linear): Linear(in_features=64, out_features=64, bias=True)
        (q_linear): Linear(in_features=64, out_features=64, bias=True)
      )
      (layer_norm1): LayerNorm((64,), eps=1e-05, elementwise_affine=True)
      (dropout1): Dropout(p=0, inplace=False)
      (linear1): Linear(in_features=64, out_features=64, bias=True)
      (linear2): Linear(in_features=64, out_features=64, bias=True)
      (layer_norm2): LayerNorm((64,), eps=1e-05, elementwise_affine=True)
      (dropout2): Dropout(p=0, inplace=False)
    )
  )
  (lin): Linear(in_features=65, out_features=64, bias=True)
)
INFO:root:Optimizer: Adam
INFO:root:Epoch 1     loss=0.2137 [189.4 s]    dev=(HR@1:0.1584,MNAP@1:0.1584,NDCG@1:0.1584) [4.7 s] *
INFO:root:Epoch 2     loss=0.1207 [186.0 s]    dev=(HR@1:0.1632,MNAP@1:0.1632,NDCG@1:0.1632) [4.7 s] *
INFO:root:Epoch 3     loss=0.1150 [184.2 s]    dev=(HR@1:0.1582,MNAP@1:0.1582,NDCG@1:0.1582) [4.8 s]
INFO:root:Epoch 4     loss=0.1137 [187.8 s]    dev=(HR@1:0.1581,MNAP@1:0.1581,NDCG@1:0.1581) [4.6 s]
…
