…
 num_layers      | 1                   
 num_neg         | 1                   
 num_workers     | 5                   
 optimizer       | Adam                
 random_seed     | 0                   
 test_all        | 0                   
 time            | 0                   
 time_diffs      | 0                   
 time_features   |                     
 topk            | 1,5,10,15,20        
========================================
INFO:root:GPU available: False
INFO:root:Load corpus from ../data/Grocery_and_Gourmet_Food1/BaseReader.pkl
INFO:root:#params: 584320
INFO:root:SASRec(
  (i_embeddings): Embedding(8714, 64)
  (p_embeddings): Embedding(21, 64)
  (transformer_block): ModuleList(
    (0): TransformerLayer(
      (masked_attn_head): MultiHeadAttention(
        (q_linear): Linear(in_features=64, out_features=64, bias=True)
        (k_linear): Linear(in_features=64, out_features=64, bias=True)
        (v_linear): Linear(in_features=64, out_features=64, bias=True)
      )
      (layer_norm1): LayerNorm((64,), eps=1e-05, elementwise_affine=True)
      (dropout1): Dropout(p=0, inplace=False)
      (linear1): Linear(in_features=64, out_features=64, bias=True)
      (linear2): Linear(in_features=64, out_features=64, bias=True)
      (layer_norm2): LayerNorm((64,), eps=1e-05, elementwise_affine=True)
      (dropout2): Dropout(p=0, inplace=False)
    )
  )
  (lin): Linear(in_features=65, out_features=64, bias=True)
)
INFO:root:Optimizer: Adam
INFO:root:Epoch 1     loss=0.6040 [24.5 s]    dev=(HR@1:0.0731,MNAP@1:0.0731,NDCG@1:0.0731) [2.5 s] *
INFO:root:Epoch 2     loss=0.4916 [24.5 s]    dev=(HR@1:0.0755,MNAP@1:0.0755,NDCG@1:0.0755) [2.5 s] *
INFO:root:Epoch 3     loss=0.4515 [24.5 s]    dev=(HR@1:0.0787,MNAP@1:0.0787,NDCG@1:0.0787) [2.5 s] *
INFO:root:Epoch 4     loss=0.4332 [24.2 s]    dev=(HR@1:0.0791,MNAP@1:0.0791,NDCG@1:0.0791) [2.7 s] *
…
