…
 num_layers      | 1                   
 num_neg         | 1                   
 num_workers     | 5                   
 optimizer       | Adam                
 random_seed     | 0                   
 test_all        | 0                   
 time            | 0                   
 time_diffs      | 0                   
 time_features   | month               
 topk            | 1,5,10,15,20        
========================================
INFO:root:GPU available: False
INFO:root:Load corpus from ../data/Grocery_and_Gourmet_Food1/BaseReader.pkl
INFO:root:#params: 580864
INFO:root:SASRec(
  (i_embeddings): Embedding(8714, 64)
  (p_embeddings): Embedding(21, 64)
  (months_embeddings): Embedding(12, 64)
  (transformer_block): ModuleList(
    (0): TransformerLayer(
      (masked_attn_head): MultiHeadAttention(
        (q_linear): Linear(in_features=64, out_features=64, bias=True)
        (k_linear): Linear(in_features=64, out_features=64, bias=True)
        (v_linear): Linear(in_features=64, out_features=64, bias=True)
      )
      (layer_norm1): LayerNorm((64,), eps=1e-05, elementwise_affine=True)
      (dropout1): Dropout(p=0, inplace=False)
      (linear1): Linear(in_features=64, out_features=64, bias=True)
      (linear2): Linear(in_features=64, out_features=64, bias=True)
      (layer_norm2): LayerNorm((64,), eps=1e-05, elementwise_affine=True)
      (dropout2): Dropout(p=0, inplace=False)
    )
  )
)
INFO:root:Optimizer: Adam
INFO:root:Epoch 1     loss=0.6212 [24.9 s]    dev=(HR@1:0.0736,MNAP@1:0.0736,NDCG@1:0.0736) [2.5 s] *
INFO:root:Epoch 2     loss=0.5043 [24.1 s]    dev=(HR@1:0.0755,MNAP@1:0.0755,NDCG@1:0.0755) [2.4 s] *
INFO:root:Epoch 3     loss=0.4561 [24.0 s]    dev=(HR@1:0.0768,MNAP@1:0.0768,NDCG@1:0.0768) [2.6 s] *
…
