…
 num_layers      | 1                  
 num_neg         | 1                  
 num_workers     | 5                  
 optimizer       | Adam               
 random_seed     | 0                  
 test_all        | 0                  
 time            | 1                  
 time_diffs      | 0                  
 time_features   |                    
 time_max        | 512                
 topk            | 1,5,10,15,20       
=======================================
INFO:root:GPU available: False
INFO:root:Load corpus from ../data/amazon_electronics1/BaseReader.pkl
INFO:root:#params: 4122999
INFO:root:TiSASRec(
  (i_embeddings): Embedding(63000, 64)
  (p_k_embeddings): Embedding(21, 65)
  (p_v_embeddings): Embedding(21, 65)
  (t_k_embeddings): Embedding(513, 65)
  (t_v_embeddings): Embedding(513, 65)
  (transformer_block): ModuleList(
    (0): TimeIntervalTransformerLayer(
      (masked_attn_head): TimeIntervalMultiHeadAttention(
        (v_linear): Linear(in_features=65, out_features=65, bias=True)
        (k_linear): Linear(in_features=65, out_features=65, bias=True)
        (q_linear): Linear(in_features=65, out_features=65, bias=True)
      )
      (layer_norm1): LayerNorm((65,), eps=1e-05, elementwise_affine=True)
      (dropout1): Dropout(p=0, inplace=False)
      (linear1): Linear(in_features=65, out_features=64, bias=True)
      (linear2): Linear(in_features=64, out_features=65, bias=True)
      (layer_norm2): LayerNorm((65,), eps=1e-05, elementwise_affine=True)
      (dropout2): Dropout(p=0, inplace=False)
    )
  )
)
INFO:root:Optimizer: Adam
INFO:root:Namespace(model_name='TiSASRec')
INFO:root:--------------------------------------------- BEGIN: 2022-05-10 23:24:30 ---------------------------------------------
INFO:root:
=======================================
 Arguments       | Values              
=======================================
…
