…
 num_workers     | 5           
 optimizer       | Adam        
 random_seed     | 0           
 test_all        | 0           
 time_diffs      | 0           
 time_features   |             
 time_max        | 512         
 topk            | 1,5,10,15,20
================================
INFO:root:GPU available: False
INFO:root:Reading data from "../data/", dataset = "tinkoff" 
INFO:root:Counting dataset statistics...
INFO:root:"# user": 94587, "# item": 2957, "# entry": 537677
INFO:root:Appending history info...
INFO:root:Save corpus to ../BaseReader.pkl
INFO:root:#params: 280311
INFO:root:TiSASRec(
  (i_embeddings): Embedding(2958, 64)
  (p_k_embeddings): Embedding(21, 65)
  (p_v_embeddings): Embedding(21, 65)
  (t_k_embeddings): Embedding(513, 65)
  (t_v_embeddings): Embedding(513, 65)
  (transformer_block): ModuleList(
    (0): TimeIntervalTransformerLayer(
      (masked_attn_head): TimeIntervalMultiHeadAttention(
        (v_linear): Linear(in_features=65, out_features=65, bias=True)
        (k_linear): Linear(in_features=65, out_features=65, bias=True)
        (q_linear): Linear(in_features=65, out_features=65, bias=True)
      )
      (layer_norm1): LayerNorm((65,), eps=1e-05, elementwise_affine=True)
      (dropout1): Dropout(p=0, inplace=False)
      (linear1): Linear(in_features=65, out_features=64, bias=True)
      (linear2): Linear(in_features=64, out_features=65, bias=True)
      (layer_norm2): LayerNorm((65,), eps=1e-05, elementwise_affine=True)
      (dropout2): Dropout(p=0, inplace=False)
    )
  )
)
INFO:root:Optimizer: Adam
INFO:root:Epoch 1     loss=0.2139 [213.3 s]    dev=(HR@1:0.1601,MNAP@1:0.1601,NDCG@1:0.1601) [5.9 s] *
INFO:root:Epoch 2     loss=0.1196 [210.1 s]    dev=(HR@1:0.1618,MNAP@1:0.1618,NDCG@1:0.1618) [5.9 s] *
INFO:root:Epoch 3     loss=0.1148 [213.0 s]    dev=(HR@1:0.1609,MNAP@1:0.1609,NDCG@1:0.1609) [6.2 s]
…
