…
 lr              | 0.0001             
 num_heads       | 1                  
 num_layers      | 1                  
 num_neg         | 1                  
 num_workers     | 5                  
 optimizer       | Adam               
 random_seed     | 0                  
 test_all        | 0                  
 time_diffs      | 0                  
 time_features   | month              
 topk            | 1,5,10,15,20       
=======================================
INFO:root:GPU available: False
INFO:root:Load corpus from ../data/amazon_electronics1/BaseReader.pkl
INFO:root:#params: 4100736
INFO:root:SASRec(
  (i_embeddings): Embedding(63000, 64)
  (p_embeddings): Embedding(21, 64)
  (months_embeddings): Embedding(12, 64)
  (transformer_block): ModuleList(
    (0): TransformerLayer(
      (masked_attn_head): MultiHeadAttention(
        (q_linear): Linear(in_features=128, out_features=128, bias=True)
        (k_linear): Linear(in_features=128, out_features=128, bias=True)
        (v_linear): Linear(in_features=128, out_features=128, bias=True)
      )
      (layer_norm1): LayerNorm((128,), eps=1e-05, elementwise_affine=True)
      (dropout1): Dropout(p=0, inplace=False)
      (linear1): Linear(in_features=128, out_features=64, bias=True)
      (linear2): Linear(in_features=64, out_features=128, bias=True)
      (layer_norm2): LayerNorm((128,), eps=1e-05, elementwise_affine=True)
      (dropout2): Dropout(p=0, inplace=False)
    )
  )
)
INFO:root:Optimizer: Adam
INFO:root:Epoch 1     loss=0.6405 [44.6 s]    dev=(HR@1:0.1744,MNAP@1:0.1744,NDCG@1:0.1744) [3.7 s] *
INFO:root:Epoch 2     loss=0.5120 [43.4 s]    dev=(HR@1:0.1816,MNAP@1:0.1816,NDCG@1:0.1816) [3.7 s] *
INFO:root:Epoch 3     loss=0.4324 [43.6 s]    dev=(HR@1:0.1847,MNAP@1:0.1847,NDCG@1:0.1847) [3.7 s] *
…
