…
 num_layers      | 1                   
 num_neg         | 1                   
 num_workers     | 5                   
 optimizer       | Adam                
 random_seed     | 0                   
 test_all        | 0                   
 time_diffs      | 0                   
 time_features   | weekday             
 time_max        | 512                 
 topk            | 1,5,10,15,20        
========================================
INFO:root:GPU available: False
INFO:root:Load corpus from ../data/Grocery_and_Gourmet_Food1/BaseReader.pkl
INFO:root:#params: 761472
INFO:root:TiSASRec(
  (i_embeddings): Embedding(8714, 64)
  (p_k_embeddings): Embedding(21, 128)
  (p_v_embeddings): Embedding(21, 128)
  (t_k_embeddings): Embedding(513, 128)
  (t_v_embeddings): Embedding(513, 128)
  (weekdays_embeddings): Embedding(7, 64)
  (transformer_block): ModuleList(
    (0): TimeIntervalTransformerLayer(
      (masked_attn_head): TimeIntervalMultiHeadAttention(
        (v_linear): Linear(in_features=128, out_features=128, bias=True)
        (k_linear): Linear(in_features=128, out_features=128, bias=True)
        (q_linear): Linear(in_features=128, out_features=128, bias=True)
      )
      (layer_norm1): LayerNorm((128,), eps=1e-05, elementwise_affine=True)
      (dropout1): Dropout(p=0, inplace=False)
      (linear1): Linear(in_features=128, out_features=64, bias=True)
      (linear2): Linear(in_features=64, out_features=128, bias=True)
      (layer_norm2): LayerNorm((128,), eps=1e-05, elementwise_affine=True)
      (dropout2): Dropout(p=0, inplace=False)
    )
  )
)
INFO:root:Optimizer: Adam
INFO:root:Epoch 1     loss=0.5953 [81.4 s]    dev=(HR@1:0.0735,MNAP@1:0.0735,NDCG@1:0.0735) [6.1 s] *
INFO:root:Epoch 2     loss=0.4750 [81.4 s]    dev=(HR@1:0.0803,MNAP@1:0.0803,NDCG@1:0.0803) [5.4 s] *
INFO:root:Epoch 3     loss=0.4314 [77.0 s]    dev=(HR@1:0.0903,MNAP@1:0.0903,NDCG@1:0.0903) [6.5 s] *
…
