…
 num_layers      | 1                  
 num_neg         | 1                  
 num_workers     | 5                  
 optimizer       | Adam               
 random_seed     | 0                  
 test_all        | 0                  
 time            | 0                  
 time_diffs      | 0                  
 time_features   | day                
 time_max        | 512                
 topk            | 1,5,10,15,20       
=======================================
INFO:root:GPU available: False
INFO:root:Load corpus from ../data/amazon_electronics1/BaseReader.pkl
INFO:root:#params: 4123392
INFO:root:TiSASRec(
  (i_embeddings): Embedding(63000, 64)
  (p_k_embeddings): Embedding(21, 64)
  (p_v_embeddings): Embedding(21, 64)
  (t_k_embeddings): Embedding(513, 64)
  (t_v_embeddings): Embedding(513, 64)
  (days_embeddings): Embedding(31, 64)
  (transformer_block): ModuleList(
    (0): TimeIntervalTransformerLayer(
      (masked_attn_head): TimeIntervalMultiHeadAttention(
        (v_linear): Linear(in_features=64, out_features=64, bias=True)
        (k_linear): Linear(in_features=64, out_features=64, bias=True)
        (q_linear): Linear(in_features=64, out_features=64, bias=True)
      )
      (layer_norm1): LayerNorm((64,), eps=1e-05, elementwise_affine=True)
      (dropout1): Dropout(p=0, inplace=False)
      (linear1): Linear(in_features=64, out_features=64, bias=True)
      (linear2): Linear(in_features=64, out_features=64, bias=True)
      (layer_norm2): LayerNorm((64,), eps=1e-05, elementwise_affine=True)
      (dropout2): Dropout(p=0, inplace=False)
    )
  )
)
INFO:root:Optimizer: Adam
INFO:root:Epoch 1     loss=0.6586 [49.5 s]    dev=(HR@1:0.1701,MNAP@1:0.1701,NDCG@1:0.1701) [4.2 s] *
INFO:root:Epoch 2     loss=0.5530 [48.9 s]    dev=(HR@1:0.1832,MNAP@1:0.1832,NDCG@1:0.1832) [4.7 s] *
INFO:root:Epoch 3     loss=0.4702 [49.9 s]    dev=(HR@1:0.1852,MNAP@1:0.1852,NDCG@1:0.1852) [4.2 s] *
…
