…
 num_heads       | 1                   
 num_layers      | 1                   
 num_neg         | 1                   
 num_workers     | 5                   
 optimizer       | Adam                
 random_seed     | 0                   
 test_all        | 0                   
 time_diffs      | 0                   
 time_features   | day                 
 topk            | 1,5,10,15,20        
========================================
INFO:root:GPU available: False
INFO:root:Load corpus from ../data/Grocery_and_Gourmet_Food1/BaseReader.pkl
INFO:root:#params: 627648
INFO:root:SASRec(
  (i_embeddings): Embedding(8714, 64)
  (p_embeddings): Embedding(21, 64)
  (days_embeddings): Embedding(31, 64)
  (transformer_block): ModuleList(
    (0): TransformerLayer(
      (masked_attn_head): MultiHeadAttention(
        (q_linear): Linear(in_features=128, out_features=128, bias=True)
        (k_linear): Linear(in_features=128, out_features=128, bias=True)
        (v_linear): Linear(in_features=128, out_features=128, bias=True)
      )
      (layer_norm1): LayerNorm((128,), eps=1e-05, elementwise_affine=True)
      (dropout1): Dropout(p=0, inplace=False)
      (linear1): Linear(in_features=128, out_features=64, bias=True)
      (linear2): Linear(in_features=64, out_features=128, bias=True)
      (layer_norm2): LayerNorm((128,), eps=1e-05, elementwise_affine=True)
      (dropout2): Dropout(p=0, inplace=False)
    )
  )
)
INFO:root:Optimizer: Adam
INFO:root:Epoch 1     loss=0.5919 [24.7 s]    dev=(HR@1:0.0747,MNAP@1:0.0747,NDCG@1:0.0747) [2.6 s] *
INFO:root:Epoch 2     loss=0.4759 [25.4 s]    dev=(HR@1:0.0779,MNAP@1:0.0779,NDCG@1:0.0779) [2.7 s] *
INFO:root:Epoch 3     loss=0.4379 [24.9 s]    dev=(HR@1:0.0798,MNAP@1:0.0798,NDCG@1:0.0798) [2.4 s] *
…
