…
 num_heads       | 1                  
 num_layers      | 1                  
 num_neg         | 1                  
 num_workers     | 5                  
 optimizer       | Adam               
 random_seed     | 0                  
 test_all        | 0                  
 time_diffs      | 0                  
 time_features   | day,month          
 time_max        | 512                
 topk            | 1,5,10,15,20       
=======================================
INFO:root:GPU available: False
INFO:root:Load corpus from ../data/amazon_electronics1/BaseReader.pkl
INFO:root:#params: 4376576
INFO:root:TiSASRec(
  (i_embeddings): Embedding(63000, 64)
  (p_k_embeddings): Embedding(21, 192)
  (p_v_embeddings): Embedding(21, 192)
  (t_k_embeddings): Embedding(513, 192)
  (t_v_embeddings): Embedding(513, 192)
  (days_embeddings): Embedding(31, 64)
  (months_embeddings): Embedding(12, 64)
  (transformer_block): ModuleList(
    (0): TimeIntervalTransformerLayer(
      (masked_attn_head): TimeIntervalMultiHeadAttention(
        (v_linear): Linear(in_features=192, out_features=192, bias=True)
        (k_linear): Linear(in_features=192, out_features=192, bias=True)
        (q_linear): Linear(in_features=192, out_features=192, bias=True)
      )
      (layer_norm1): LayerNorm((192,), eps=1e-05, elementwise_affine=True)
      (dropout1): Dropout(p=0, inplace=False)
      (linear1): Linear(in_features=192, out_features=64, bias=True)
      (linear2): Linear(in_features=64, out_features=192, bias=True)
      (layer_norm2): LayerNorm((192,), eps=1e-05, elementwise_affine=True)
      (dropout2): Dropout(p=0, inplace=False)
    )
  )
)
INFO:root:Optimizer: Adam
INFO:root:Epoch 1     loss=0.6341 [118.8 s]    dev=(HR@1:0.1767,MNAP@1:0.1767,NDCG@1:0.1767) [9.4 s] *
INFO:root:Epoch 2     loss=0.4928 [116.3 s]    dev=(HR@1:0.1827,MNAP@1:0.1827,NDCG@1:0.1827) [9.6 s] *
INFO:root:Epoch 3     loss=0.4147 [117.7 s]    dev=(HR@1:0.1835,MNAP@1:0.1835,NDCG@1:0.1835) [9.4 s] *
…
