…
 num_layers      | 1                   
 num_neg         | 1                   
 num_workers     | 5                   
 optimizer       | Adam                
 random_seed     | 0                   
 test_all        | 0                   
 time_diffs      | 0                   
 time_features   | day,month           
 time_max        | 512                 
 topk            | 1,5,10,15,20        
========================================
INFO:root:GPU available: False
INFO:root:Load corpus from ../data/Grocery_and_Gourmet_Food1/BaseReader.pkl
INFO:root:#params: 902272
INFO:root:TiSASRec(
  (i_embeddings): Embedding(8714, 64)
  (p_k_embeddings): Embedding(21, 192)
  (p_v_embeddings): Embedding(21, 192)
  (t_k_embeddings): Embedding(513, 192)
  (t_v_embeddings): Embedding(513, 192)
  (days_embeddings): Embedding(31, 64)
  (months_embeddings): Embedding(12, 64)
  (transformer_block): ModuleList(
    (0): TimeIntervalTransformerLayer(
      (masked_attn_head): TimeIntervalMultiHeadAttention(
        (v_linear): Linear(in_features=192, out_features=192, bias=True)
        (k_linear): Linear(in_features=192, out_features=192, bias=True)
        (q_linear): Linear(in_features=192, out_features=192, bias=True)
      )
      (layer_norm1): LayerNorm((192,), eps=1e-05, elementwise_affine=True)
      (dropout1): Dropout(p=0, inplace=False)
      (linear1): Linear(in_features=192, out_features=64, bias=True)
      (linear2): Linear(in_features=64, out_features=192, bias=True)
      (layer_norm2): LayerNorm((192,), eps=1e-05, elementwise_affine=True)
      (dropout2): Dropout(p=0, inplace=False)
    )
  )
)
INFO:root:Optimizer: Adam
INFO:root:Epoch 1     loss=0.5854 [135.9 s]    dev=(HR@1:0.0750,MNAP@1:0.0750,NDCG@1:0.0750) [8.4 s] *
INFO:root:Epoch 2     loss=0.4645 [136.0 s]    dev=(HR@1:0.0802,MNAP@1:0.0802,NDCG@1:0.0802) [9.1 s] *
INFO:root:Epoch 3     loss=0.4213 [137.9 s]    dev=(HR@1:0.0947,MNAP@1:0.0947,NDCG@1:0.0947) [8.7 s] *
…
