…
 lr              | 0.0001             
 num_heads       | 1                  
 num_layers      | 1                  
 num_neg         | 1                  
 num_workers     | 5                  
 optimizer       | Adam               
 random_seed     | 0                  
 test_all        | 0                  
 time_diffs      | 0                  
 time_features   | day,month          
 topk            | 1,5,10,15,20       
=======================================
INFO:root:GPU available: False
INFO:root:Load corpus from ../data/amazon_electronics1/BaseReader.pkl
INFO:root:#params: 4172864
INFO:root:SASRec(
  (i_embeddings): Embedding(63000, 64)
  (p_embeddings): Embedding(21, 64)
  (days_embeddings): Embedding(31, 64)
  (months_embeddings): Embedding(12, 64)
  (transformer_block): ModuleList(
    (0): TransformerLayer(
      (masked_attn_head): MultiHeadAttention(
        (q_linear): Linear(in_features=192, out_features=192, bias=True)
        (k_linear): Linear(in_features=192, out_features=192, bias=True)
        (v_linear): Linear(in_features=192, out_features=192, bias=True)
      )
      (layer_norm1): LayerNorm((192,), eps=1e-05, elementwise_affine=True)
      (dropout1): Dropout(p=0, inplace=False)
      (linear1): Linear(in_features=192, out_features=64, bias=True)
      (linear2): Linear(in_features=64, out_features=192, bias=True)
      (layer_norm2): LayerNorm((192,), eps=1e-05, elementwise_affine=True)
      (dropout2): Dropout(p=0, inplace=False)
    )
  )
)
INFO:root:Optimizer: Adam
INFO:root:Epoch 1     loss=0.6274 [36.3 s]    dev=(HR@1:0.1734,MNAP@1:0.1734,NDCG@1:0.1734) [3.6 s] *
INFO:root:Epoch 2     loss=0.4878 [35.7 s]    dev=(HR@1:0.1792,MNAP@1:0.1792,NDCG@1:0.1792) [3.8 s] *
INFO:root:Epoch 3     loss=0.4134 [35.8 s]    dev=(HR@1:0.1829,MNAP@1:0.1829,NDCG@1:0.1829) [3.8 s] *
…
