…
 lr              | 0.0001              
 num_heads       | 1                   
 num_layers      | 1                   
 num_neg         | 1                   
 num_workers     | 5                   
 optimizer       | Adam                
 random_seed     | 1                   
 test_all        | 0                   
 time_max        | 512                 
 topk            | 1,5,10,15,20        
========================================
INFO:root:GPU available: True
INFO:root:Load corpus from ../data/Grocery_and_Gourmet_Food/BaseReader.pkl
INFO:root:#params: 647104
INFO:root:TiSASRec(
  (i_embeddings): Embedding(8714, 64)
  (p_k_embeddings): Embedding(21, 64)
  (p_v_embeddings): Embedding(21, 64)
  (t_k_embeddings): Embedding(513, 64)
  (t_v_embeddings): Embedding(513, 64)
  (transformer_block): ModuleList(
    (0): TimeIntervalTransformerLayer(
      (masked_attn_head): TimeIntervalMultiHeadAttention(
        (v_linear): Linear(in_features=64, out_features=64, bias=True)
        (k_linear): Linear(in_features=64, out_features=64, bias=True)
        (q_linear): Linear(in_features=64, out_features=64, bias=True)
      )
      (layer_norm1): LayerNorm((64,), eps=1e-05, elementwise_affine=True)
      (dropout1): Dropout(p=0, inplace=False)
      (linear1): Linear(in_features=64, out_features=64, bias=True)
      (linear2): Linear(in_features=64, out_features=64, bias=True)
      (layer_norm2): LayerNorm((64,), eps=1e-05, elementwise_affine=True)
      (dropout2): Dropout(p=0, inplace=False)
    )
  )
)
INFO:root:Optimizer: Adam
INFO:root:Epoch 1     loss=0.6206 [8.2 s]    dev=(NDCG@1:0.0770) [0.8 s] *
INFO:root:Epoch 2     loss=0.5026 [7.8 s]    dev=(NDCG@1:0.0791) [0.8 s] *
INFO:root:Epoch 3     loss=0.4513 [7.6 s]    dev=(NDCG@1:0.0868) [0.8 s] *
INFO:root:Epoch 4     loss=0.4202 [7.9 s]    dev=(NDCG@1:0.0993) [0.8 s] *
…
