…
 l2              | 1e-06               
 lr              | 0.0001              
 num_heads       | 1                   
 num_layers      | 1                   
 num_neg         | 1                   
 num_workers     | 5                   
 optimizer       | Adam                
 random_seed     | 0                   
 test_all        | 0                   
 topk            | 5,10,20,50          
========================================
INFO:root:GPU available: True
INFO:root:Load corpus from ../data/Grocery_and_Gourmet_Food/BaseReader.pkl
INFO:root:#params: 580096
INFO:root:SASRec(
  (i_embeddings): Embedding(8714, 64)
  (p_embeddings): Embedding(21, 64)
  (transformer_block): ModuleList(
    (0): TransformerLayer(
      (masked_attn_head): MultiHeadAttention(
        (q_linear): Linear(in_features=64, out_features=64, bias=True)
        (k_linear): Linear(in_features=64, out_features=64, bias=True)
        (v_linear): Linear(in_features=64, out_features=64, bias=True)
      )
      (layer_norm1): LayerNorm((64,), eps=1e-05, elementwise_affine=True)
      (dropout1): Dropout(p=0, inplace=False)
      (linear1): Linear(in_features=64, out_features=64, bias=True)
      (linear2): Linear(in_features=64, out_features=64, bias=True)
      (layer_norm2): LayerNorm((64,), eps=1e-05, elementwise_affine=True)
      (dropout2): Dropout(p=0, inplace=False)
    )
  )
)
INFO:root:Optimizer: Adam
INFO:root:Epoch 1     loss=0.6157 [17.9 s]    dev=(HR@5:0.2445,NDCG@5:0.1592) [1.5 s] *
INFO:root:Epoch 2     loss=0.5008 [18.2 s]    dev=(HR@5:0.2471,NDCG@5:0.1610) [1.4 s] *
INFO:root:Epoch 3     loss=0.4538 [18.4 s]    dev=(HR@5:0.2507,NDCG@5:0.1637) [1.5 s] *
INFO:root:Epoch 4     loss=0.4282 [18.2 s]    dev=(HR@5:0.2590,NDCG@5:0.1706) [1.5 s] *
…
 num_heads       | 1                   
 num_layers      | 1                   
 num_neg         | 1                   
 num_workers     | 5                   
 optimizer       | Adam                
 random_seed     | 0                   
 test_all        | 0                   
 time_diffs      | 0                   
 time_features   | hour                
 topk            | 1,5,10,15,20        
========================================
INFO:root:GPU available: True
INFO:root:Load corpus from ../data/Grocery_and_Gourmet_Food/BaseReader.pkl
INFO:root:#params: 644942
INFO:root:SASRec(
  (i_embeddings): Embedding(8714, 64)
  (p_embeddings): Embedding(21, 64)
  (hours_embeddings): Embedding(24, 64)
  (transformer_block): ModuleList(
    (0): TransformerLayer(
      (masked_attn_head): MultiHeadAttention(
        (q_linear): Linear(in_features=129, out_features=129, bias=True)
        (k_linear): Linear(in_features=129, out_features=129, bias=True)
        (v_linear): Linear(in_features=129, out_features=129, bias=True)
      )
      (layer_norm1): LayerNorm((129,), eps=1e-05, elementwise_affine=True)
      (dropout1): Dropout(p=0, inplace=False)
      (linear1): Linear(in_features=129, out_features=129, bias=True)
      (linear2): Linear(in_features=129, out_features=129, bias=True)
      (layer_norm2): LayerNorm((129,), eps=1e-05, elementwise_affine=True)
      (dropout2): Dropout(p=0, inplace=False)
    )
  )
)
INFO:root:Optimizer: Adam
INFO:root:Namespace(model_name='SASRec')
INFO:root:--------------------------------------------- BEGIN: 2022-04-07 19:00:48 ---------------------------------------------
INFO:root:
========================================
 Arguments       | Values               
========================================
…
 num_heads       | 1                   
 num_layers      | 1                   
 num_neg         | 1                   
 num_workers     | 5                   
 optimizer       | Adam                
 random_seed     | 0                   
 test_all        | 0                   
 time_diffs      | 0                   
 time_features   | hour                
 topk            | 1,5,10,15,20        
========================================
INFO:root:GPU available: True
INFO:root:Load corpus from ../data/Grocery_and_Gourmet_Food/BaseReader.pkl
INFO:root:#params: 628107
INFO:root:SASRec(
  (i_embeddings): Embedding(8714, 64)
  (p_embeddings): Embedding(21, 64)
  (hours_embeddings): Embedding(24, 64)
  (transformer_block): ModuleList(
    (0): TransformerLayer(
      (masked_attn_head): MultiHeadAttention(
        (q_linear): Linear(in_features=129, out_features=129, bias=True)
        (k_linear): Linear(in_features=129, out_features=129, bias=True)
        (v_linear): Linear(in_features=129, out_features=129, bias=True)
      )
      (layer_norm1): LayerNorm((129,), eps=1e-05, elementwise_affine=True)
      (dropout1): Dropout(p=0, inplace=False)
      (linear1): Linear(in_features=129, out_features=64, bias=True)
      (linear2): Linear(in_features=64, out_features=129, bias=True)
      (layer_norm2): LayerNorm((129,), eps=1e-05, elementwise_affine=True)
      (dropout2): Dropout(p=0, inplace=False)
    )
  )
)
INFO:root:Optimizer: Adam
INFO:root:Namespace(model_name='SASRec')
INFO:root:--------------------------------------------- BEGIN: 2022-04-07 19:02:25 ---------------------------------------------
INFO:root:
========================================
 Arguments       | Values               
========================================
…
 num_heads       | 1                   
 num_layers      | 1                   
 num_neg         | 1                   
 num_workers     | 5                   
 optimizer       | Adam                
 random_seed     | 0                   
 test_all        | 0                   
 time_diffs      | 0                   
 time_features   | hour                
 topk            | 1,5,10,15,20        
========================================
INFO:root:GPU available: True
INFO:root:Load corpus from ../data/Grocery_and_Gourmet_Food/BaseReader.pkl
INFO:root:#params: 590017
INFO:root:SASRec(
  (i_embeddings): Embedding(8714, 64)
  (p_embeddings): Embedding(21, 64)
  (hours_embeddings): Embedding(24, 64)
  (transformer_block): ModuleList(
    (0): TransformerLayer(
      (masked_attn_head): MultiHeadAttention(
        (q_linear): Linear(in_features=64, out_features=64, bias=True)
        (k_linear): Linear(in_features=64, out_features=64, bias=True)
        (v_linear): Linear(in_features=64, out_features=64, bias=True)
      )
      (layer_norm1): LayerNorm((64,), eps=1e-05, elementwise_affine=True)
      (dropout1): Dropout(p=0, inplace=False)
      (linear1): Linear(in_features=64, out_features=129, bias=True)
      (linear2): Linear(in_features=129, out_features=64, bias=True)
      (layer_norm2): LayerNorm((64,), eps=1e-05, elementwise_affine=True)
      (dropout2): Dropout(p=0, inplace=False)
    )
  )
)
INFO:root:Optimizer: Adam
INFO:root:Namespace(model_name='SASRec')
INFO:root:--------------------------------------------- BEGIN: 2022-04-07 19:04:07 ---------------------------------------------
INFO:root:
========================================
 Arguments       | Values               
========================================
…
 num_heads       | 1                   
 num_layers      | 1                   
 num_neg         | 1                   
 num_workers     | 5                   
 optimizer       | Adam                
 random_seed     | 0                   
 test_all        | 0                   
 time_diffs      | 0                   
 time_features   | hour                
 topk            | 1,5,10,15,20        
========================================
INFO:root:GPU available: True
INFO:root:Load corpus from ../data/Grocery_and_Gourmet_Food/BaseReader.pkl
INFO:root:#params: 581632
INFO:root:SASRec(
  (i_embeddings): Embedding(8714, 64)
  (p_embeddings): Embedding(21, 64)
  (hours_embeddings): Embedding(24, 64)
  (transformer_block): ModuleList(
    (0): TransformerLayer(
      (masked_attn_head): MultiHeadAttention(
        (q_linear): Linear(in_features=64, out_features=64, bias=True)
        (k_linear): Linear(in_features=64, out_features=64, bias=True)
        (v_linear): Linear(in_features=64, out_features=64, bias=True)
      )
      (layer_norm1): LayerNorm((64,), eps=1e-05, elementwise_affine=True)
      (dropout1): Dropout(p=0, inplace=False)
      (linear1): Linear(in_features=64, out_features=64, bias=True)
      (linear2): Linear(in_features=64, out_features=64, bias=True)
      (layer_norm2): LayerNorm((64,), eps=1e-05, elementwise_affine=True)
      (dropout2): Dropout(p=0, inplace=False)
    )
  )
)
INFO:root:Optimizer: Adam
INFO:root:Namespace(model_name='SASRec')
INFO:root:--------------------------------------------- BEGIN: 2022-04-07 20:11:23 ---------------------------------------------
INFO:root:
========================================
 Arguments       | Values               
========================================
…
 num_heads       | 1                   
 num_layers      | 1                   
 num_neg         | 1                   
 num_workers     | 5                   
 optimizer       | Adam                
 random_seed     | 0                   
 test_all        | 0                   
 time_diffs      | 0                   
 time_features   |                     
 topk            | 5,10,20,50          
========================================
INFO:root:GPU available: True
INFO:root:Load corpus from ../data/Grocery_and_Gourmet_Food/BaseReader.pkl
INFO:root:#params: 581440
INFO:root:SASRec(
  (i_embeddings): Embedding(8714, 64)
  (p_k_embeddings): Embedding(21, 64)
  (p_v_embeddings): Embedding(21, 64)
  (transformer_block): ModuleList(
    (0): TimeIntervalTransformerLayer(
      (masked_attn_head): TimeIntervalMultiHeadAttention(
        (v_linear): Linear(in_features=64, out_features=64, bias=True)
        (k_linear): Linear(in_features=64, out_features=64, bias=True)
        (q_linear): Linear(in_features=64, out_features=64, bias=True)
      )
      (layer_norm1): LayerNorm((64,), eps=1e-05, elementwise_affine=True)
      (dropout1): Dropout(p=0, inplace=False)
      (linear1): Linear(in_features=64, out_features=64, bias=True)
      (linear2): Linear(in_features=64, out_features=64, bias=True)
      (layer_norm2): LayerNorm((64,), eps=1e-05, elementwise_affine=True)
      (dropout2): Dropout(p=0, inplace=False)
    )
  )
)
INFO:root:Optimizer: Adam
INFO:root:Namespace(model_name='SASRec')
INFO:root:--------------------------------------------- BEGIN: 2022-04-07 20:12:12 ---------------------------------------------
INFO:root:
========================================
 Arguments       | Values               
========================================
…
 num_heads       | 1                   
 num_layers      | 1                   
 num_neg         | 1                   
 num_workers     | 5                   
 optimizer       | Adam                
 random_seed     | 0                   
 test_all        | 0                   
 time_diffs      | 0                   
 time_features   | hour                
 topk            | 1,5,10,15,20        
========================================
INFO:root:GPU available: True
INFO:root:Load corpus from ../data/Grocery_and_Gourmet_Food/BaseReader.pkl
INFO:root:#params: 594242
INFO:root:SASRec(
  (i_embeddings): Embedding(8714, 64)
  (p_embeddings): Embedding(21, 64)
  (hours_embeddings): Embedding(24, 64)
  (transformer_block): ModuleList(
    (0): TransformerLayer(
      (masked_attn_head): MultiHeadAttention(
        (q_linear): Linear(in_features=129, out_features=129, bias=True)
        (k_linear): Linear(in_features=64, out_features=64, bias=True)
        (v_linear): Linear(in_features=64, out_features=64, bias=True)
      )
      (layer_norm1): LayerNorm((64,), eps=1e-05, elementwise_affine=True)
      (dropout1): Dropout(p=0, inplace=False)
      (linear1): Linear(in_features=64, out_features=64, bias=True)
      (linear2): Linear(in_features=64, out_features=64, bias=True)
      (layer_norm2): LayerNorm((64,), eps=1e-05, elementwise_affine=True)
      (dropout2): Dropout(p=0, inplace=False)
    )
  )
)
INFO:root:Optimizer: Adam
INFO:root:Namespace(model_name='SASRec')
INFO:root:--------------------------------------------- BEGIN: 2022-04-07 21:01:51 ---------------------------------------------
INFO:root:
========================================
 Arguments       | Values               
========================================
…
 num_heads       | 1                   
 num_layers      | 1                   
 num_neg         | 1                   
 num_workers     | 5                   
 optimizer       | Adam                
 random_seed     | 0                   
 test_all        | 0                   
 time_diffs      | 0                   
 time_features   | hour                
 topk            | 1,5,10,15,20        
========================================
INFO:root:GPU available: True
INFO:root:Load corpus from ../data/Grocery_and_Gourmet_Food/BaseReader.pkl
INFO:root:#params: 1194517
INFO:root:SASRec(
  (i_embeddings): Embedding(8714, 129)
  (p_embeddings): Embedding(21, 64)
  (hours_embeddings): Embedding(24, 64)
  (transformer_block): ModuleList(
    (0): TransformerLayer(
      (masked_attn_head): MultiHeadAttention(
        (q_linear): Linear(in_features=129, out_features=129, bias=True)
        (k_linear): Linear(in_features=129, out_features=129, bias=True)
        (v_linear): Linear(in_features=129, out_features=129, bias=True)
      )
      (layer_norm1): LayerNorm((129,), eps=1e-05, elementwise_affine=True)
      (dropout1): Dropout(p=0, inplace=False)
      (linear1): Linear(in_features=129, out_features=64, bias=True)
      (linear2): Linear(in_features=64, out_features=129, bias=True)
      (layer_norm2): LayerNorm((129,), eps=1e-05, elementwise_affine=True)
      (dropout2): Dropout(p=0, inplace=False)
    )
  )
)
INFO:root:Optimizer: Adam
INFO:root:Namespace(model_name='SASRec')
INFO:root:--------------------------------------------- BEGIN: 2022-04-07 21:14:45 ---------------------------------------------
INFO:root:
========================================
 Arguments       | Values               
========================================
…
 num_heads       | 1                   
 num_layers      | 1                   
 num_neg         | 1                   
 num_workers     | 5                   
 optimizer       | Adam                
 random_seed     | 0                   
 test_all        | 0                   
 time_diffs      | 0                   
 time_features   | hour                
 topk            | 1,5,10,15,20        
========================================
INFO:root:GPU available: True
INFO:root:Load corpus from ../data/Grocery_and_Gourmet_Food/BaseReader.pkl
INFO:root:#params: 1752213
INFO:root:SASRec(
  (i_embeddings): Embedding(8714, 64)
  (i1_embeddings): Embedding(8714, 129)
  (p_embeddings): Embedding(21, 64)
  (hours_embeddings): Embedding(24, 64)
  (transformer_block): ModuleList(
    (0): TransformerLayer(
      (masked_attn_head): MultiHeadAttention(
        (q_linear): Linear(in_features=129, out_features=129, bias=True)
        (k_linear): Linear(in_features=129, out_features=129, bias=True)
        (v_linear): Linear(in_features=129, out_features=129, bias=True)
      )
      (layer_norm1): LayerNorm((129,), eps=1e-05, elementwise_affine=True)
      (dropout1): Dropout(p=0, inplace=False)
      (linear1): Linear(in_features=129, out_features=64, bias=True)
      (linear2): Linear(in_features=64, out_features=129, bias=True)
      (layer_norm2): LayerNorm((129,), eps=1e-05, elementwise_affine=True)
      (dropout2): Dropout(p=0, inplace=False)
    )
  )
)
INFO:root:Optimizer: Adam
INFO:root:Epoch 1     loss=0.5567 [19.3 s]    dev=(HR@1:0.0768,MNAP@1:0.0768,NDCG@1:0.0768) [1.5 s] *
INFO:root:Epoch 2     loss=0.4549 [19.4 s]    dev=(HR@1:0.0772,MNAP@1:0.0772,NDCG@1:0.0772) [1.5 s] *
INFO:root:Epoch 3     loss=0.4364 [19.4 s]    dev=(HR@1:0.0824,MNAP@1:0.0824,NDCG@1:0.0824) [1.5 s] *
…
 num_heads       | 1                   
 num_layers      | 1                   
 num_neg         | 1                   
 num_workers     | 5                   
 optimizer       | Adam                
 random_seed     | 0                   
 test_all        | 0                   
 time_diffs      | 0                   
 time_features   |                     
 topk            | 1,5,10,15,20        
========================================
INFO:root:GPU available: True
INFO:root:Load corpus from ../data/Grocery_and_Gourmet_Food/BaseReader.pkl
INFO:root:#params: 1750677
INFO:root:SASRec(
  (i_embeddings): Embedding(8714, 64)
  (i1_embeddings): Embedding(8714, 129)
  (p_embeddings): Embedding(21, 64)
  (transformer_block): ModuleList(
    (0): TransformerLayer(
      (masked_attn_head): MultiHeadAttention(
        (q_linear): Linear(in_features=129, out_features=129, bias=True)
        (k_linear): Linear(in_features=129, out_features=129, bias=True)
        (v_linear): Linear(in_features=129, out_features=129, bias=True)
      )
      (layer_norm1): LayerNorm((129,), eps=1e-05, elementwise_affine=True)
      (dropout1): Dropout(p=0, inplace=False)
      (linear1): Linear(in_features=129, out_features=64, bias=True)
      (linear2): Linear(in_features=64, out_features=129, bias=True)
      (layer_norm2): LayerNorm((129,), eps=1e-05, elementwise_affine=True)
      (dropout2): Dropout(p=0, inplace=False)
    )
  )
)
INFO:root:Optimizer: Adam
INFO:root:Namespace(model_name='SASRec')
INFO:root:--------------------------------------------- BEGIN: 2022-04-07 22:05:17 ---------------------------------------------
INFO:root:
========================================
 Arguments       | Values               
========================================
…
 num_heads       | 1                   
 num_layers      | 1                   
 num_neg         | 1                   
 num_workers     | 5                   
 optimizer       | Adam                
 random_seed     | 0                   
 test_all        | 0                   
 time_diffs      | 0                   
 time_features   |                     
 topk            | 1,5,10,15,20        
========================================
INFO:root:GPU available: True
INFO:root:Load corpus from ../data/Grocery_and_Gourmet_Food/BaseReader.pkl
INFO:root:#params: 1137792
INFO:root:SASRec(
  (i_embeddings): Embedding(8714, 64)
  (i1_embeddings): Embedding(8714, 64)
  (p_embeddings): Embedding(21, 64)
  (transformer_block): ModuleList(
    (0): TransformerLayer(
      (masked_attn_head): MultiHeadAttention(
        (q_linear): Linear(in_features=64, out_features=64, bias=True)
        (k_linear): Linear(in_features=64, out_features=64, bias=True)
        (v_linear): Linear(in_features=64, out_features=64, bias=True)
      )
      (layer_norm1): LayerNorm((64,), eps=1e-05, elementwise_affine=True)
      (dropout1): Dropout(p=0, inplace=False)
      (linear1): Linear(in_features=64, out_features=64, bias=True)
      (linear2): Linear(in_features=64, out_features=64, bias=True)
      (layer_norm2): LayerNorm((64,), eps=1e-05, elementwise_affine=True)
      (dropout2): Dropout(p=0, inplace=False)
    )
  )
)
INFO:root:Optimizer: Adam
INFO:root:Epoch 1     loss=0.6086 [17.8 s]    dev=(HR@1:0.0734,MNAP@1:0.0734,NDCG@1:0.0734) [1.4 s] *
INFO:root:Epoch 2     loss=0.4918 [17.8 s]    dev=(HR@1:0.0751,MNAP@1:0.0751,NDCG@1:0.0751) [1.4 s] *
INFO:root:Epoch 3     loss=0.4509 [18.2 s]    dev=(HR@1:0.0749,MNAP@1:0.0749,NDCG@1:0.0749) [1.4 s]
…
