…
 history_max     | 20                  
 l2              | 0.0001              
 lr              | 0.001               
 num_neg         | 1                   
 num_workers     | 5                   
 optimizer       | Adam                
 random_seed     | 0                   
 test_all        | 0                   
 time_features   | month, weekday, d...
 topk            | 1,5,10,15,20        
========================================
INFO:root:GPU available: True
INFO:root:Load corpus from ../data/Grocery_and_Gourmet_Food/BaseReader.pkl
INFO:root:#params: 695496
INFO:root:GRU4Rec(
  (i_embeddings): Embedding(8714, 64)
  (hours_embeddings): Embedding(24, 64)
  (days_embeddings): Embedding(31, 64)
  (months_embeddings): Embedding(12, 64)
  (weekdays_embeddings): Embedding(7, 64)
  (rnn): GRU(320, 100, batch_first=True)
  (out): Linear(in_features=100, out_features=64, bias=True)
)
INFO:root:Optimizer: Adam
INFO:root:Epoch 1     loss=0.4896 [11.4 s]    dev=(NDCG@1:0.0838) [1.0 s] *
INFO:root:Epoch 2     loss=0.4186 [11.4 s]    dev=(NDCG@1:0.1055) [1.0 s] *
INFO:root:Epoch 3     loss=0.3908 [11.4 s]    dev=(NDCG@1:0.1062) [1.0 s] *
INFO:root:Epoch 4     loss=0.3759 [11.5 s]    dev=(NDCG@1:0.1126) [1.1 s] *
INFO:root:Epoch 5     loss=0.3612 [11.5 s]    dev=(NDCG@1:0.1268) [1.0 s] *
…
 history_max     | 20                  
 l2              | 0.0001              
 lr              | 0.001               
 num_neg         | 1                   
 num_workers     | 5                   
 optimizer       | Adam                
 random_seed     | 0                   
 test_all        | 0                   
 time_features   | month, weekday, d...
 topk            | 1,5,10,15,20        
========================================
INFO:root:GPU available: True
INFO:root:Load corpus from ../data/Grocery_and_Gourmet_Food/BaseReader.pkl
INFO:root:#params: 695496
INFO:root:GRU4Rec(
  (i_embeddings): Embedding(8714, 64)
  (months_embeddings): Embedding(12, 64)
  (weekdays_embeddings): Embedding(7, 64)
  (days_embeddings): Embedding(31, 64)
  (hours_embeddings): Embedding(24, 64)
  (rnn): GRU(320, 100, batch_first=True)
  (out): Linear(in_features=100, out_features=64, bias=True)
)
INFO:root:Optimizer: Adam
INFO:root:Epoch 1     loss=0.4899 [17.3 s]    dev=(NDCG@1:0.0836) [1.3 s] *
INFO:root:Epoch 2     loss=0.4192 [17.2 s]    dev=(NDCG@1:0.1051) [1.3 s] *
INFO:root:Epoch 3     loss=0.3910 [17.3 s]    dev=(NDCG@1:0.1067) [1.3 s] *
INFO:root:Epoch 4     loss=0.3754 [17.5 s]    dev=(NDCG@1:0.1123) [1.3 s] *
INFO:root:Epoch 5     loss=0.3605 [17.3 s]    dev=(NDCG@1:0.1272) [1.3 s] *
…
