…
 history_max     | 20                  
 l2              | 0.0001              
 lr              | 0.001               
 num_neg         | 1                   
 num_workers     | 5                   
 optimizer       | Adam                
 random_seed     | 0                   
 test_all        | 0                   
 time_features   | month, weekday, d...
 topk            | 1,5,10,15,20        
========================================
INFO:root:GPU available: False
INFO:root:Load corpus from ../data/amazon_electronics/BaseReader.pkl
INFO:root:#params: 4146312
INFO:root:GRU4Rec(
  (i_embeddings): Embedding(62633, 64)
  (months_embeddings): Embedding(12, 64)
  (weekdays_embeddings): Embedding(7, 64)
  (days_embeddings): Embedding(31, 64)
  (hours_embeddings): Embedding(24, 64)
  (rnn): GRU(320, 100, batch_first=True)
  (out): Linear(in_features=100, out_features=64, bias=True)
)
INFO:root:Optimizer: Adam
INFO:root:Epoch 1     loss=0.5106 [40.3 s]    dev=(HR@1:0.1170,MNAP@1:0.1170,NDCG@1:0.1170) [3.4 s] *
INFO:root:Epoch 2     loss=0.3471 [39.1 s]    dev=(HR@1:0.1090,MNAP@1:0.1090,NDCG@1:0.1090) [3.4 s]
INFO:root:Epoch 3     loss=0.3094 [39.5 s]    dev=(HR@1:0.1100,MNAP@1:0.1100,NDCG@1:0.1100) [3.4 s]
INFO:root:Epoch 4     loss=0.2939 [39.4 s]    dev=(HR@1:0.1100,MNAP@1:0.1100,NDCG@1:0.1100) [3.4 s]
…
 l2              | 0.0001              
 lr              | 0.001               
 num_neg         | 1                   
 num_workers     | 5                   
 optimizer       | Adam                
 random_seed     | 0                   
 test_all        | 0                   
 time_diffs      | 0                   
 time_features   | month, weekday, d...
 topk            | 1,5,10,15,20        
========================================
INFO:root:GPU available: True
INFO:root:Load corpus from ../data/amazon_electronics/BaseReader.pkl
INFO:root:#params: 4169800
INFO:root:GRU4Rec(
  (i_embeddings): Embedding(63000, 64)
  (months_embeddings): Embedding(12, 64)
  (weekdays_embeddings): Embedding(7, 64)
  (days_embeddings): Embedding(31, 64)
  (hours_embeddings): Embedding(24, 64)
  (rnn): GRU(320, 100, batch_first=True)
  (out): Linear(in_features=100, out_features=64, bias=True)
)
INFO:root:Optimizer: Adam
INFO:root:Epoch 1     loss=0.5377 [21.1 s]    dev=(HR@1:0.1653,MNAP@1:0.1653,NDCG@1:0.1653) [2.1 s] *
INFO:root:Epoch 2     loss=0.4173 [21.4 s]    dev=(HR@1:0.1649,MNAP@1:0.1649,NDCG@1:0.1649) [2.1 s]
INFO:root:Epoch 3     loss=0.3789 [21.3 s]    dev=(HR@1:0.1681,MNAP@1:0.1681,NDCG@1:0.1681) [2.1 s] *
INFO:root:Epoch 4     loss=0.3516 [21.6 s]    dev=(HR@1:0.1691,MNAP@1:0.1691,NDCG@1:0.1691) [2.4 s] *
…
